model/model.pth (torch, 17216 bytes, 4 tensors)

linear1.weight f4 [256, 11]
0.11070295 -0.13343497 -0.08303444 0.07767846 -0.004817125 -0.2334485 -0.26983073 0.21008042
0.22727333 -0.18659835 0.25488752 0.09743383 0.25781497 0.12386993 0.107354574 -0.19829929
-0.030837754 -0.02319151 0.023134356 -0.055050954 -0.15757188 0.2751056 0.29579663 0.22675422
0.21741249 0.25116786 0.023330495 0.15337926 -0.0070725195 0.122328654 0.06453144 -0.20354986
-0.13897695 0.06793364 0.1400276 0.09051459 -0.28470603 0.2655407 0.168568 -0.22909999
-0.19870144 0.05977503 0.25872964 -0.0972399 -0.2504174 0.054938108 -0.071977384 0.12956795
-0.15734819 -0.2716215 -0.21376505 0.04479327 0.30339548 -0.10156092 -0.16964705 -0.02020367
0.28233495 0.11086721 0.20882706 -0.021317773 0.30587012 0.17160629 -0.11110419 0.09060253
0.28696948 0.15560757 -0.050068695 0.0046610823 -0.16668764 0.008711673 0.19375633 0.042861648
0.0043924088 0.24575979 -0.16702256 -0.21076065 0.08099809 -0.19125842 -0.2372369 0.10063664
0.08089265 -0.16996305 -0.05495608 0.1588388 -0.14716627 -0.26587814 -0.049902357 -0.22942226
-0.21636252 0.16282113 -0.108144656 -0.29222614 0.09333099 -0.015479768 -0.20968547 -0.2988356
0.12072469 -0.20716135 -0.10626397 0.29236937 0.13851355 -0.008119728 -0.045193233 0.10297192
-0.16771787 -0.15531705 -0.0063458723 0.25546673 -0.27252632 -0.0046179537 -0.2367545 0.08883419
0.101591304 0.16958709 -0.27230456 0.0004022994 0.26713413 0.16904804 0.26767874 0.10787812
-0.04505307 0.14031793 0.23426025 -0.292867 -0.066391736 0.2812249 0.19968243 0.05400177
-0.13955209 -0.039855596 -0.021679575 -0.17323041 0.29382485 0.09234999 0.19439502 -0.17184561
-0.059464812 0.17191954 -0.2623824 -0.14665093 0.2811933 0.22184315 -0.2237224 -0.21859616
0.25717732 -0.16987705 0.14517027 -0.02739538 0.038316283 -0.089861155 -0.1911587 0.14847961
0.16296695 -0.006022076 -0.02176564 -0.07283401 -0.068988346 0.3088852 -0.2303906 0.057854537
0.17274264 0.15462859 0.22337271 0.030375188 -0.038300436 0.10094352 0.14477766 0.13748752
-0.17911567 -0.12410803 0.060069773 -0.20625196 -0.26499793 0.22598411 0.20768192 0.04955496
-0.12746291 -0.23300515 0.2013448 -0.048699412 0.05438464 -0.1243036 0.094288886 -0.0963496
0.025552971 0.086545356 -0.21395345 0.104939595 0.28021333 -0.023768572 -0.041398726 -0.2571637
-0.2072681 0.19638896 0.04859664 -0.075779505 -0.03426638 0.15652588 -0.27064982 0.0683788
-0.106401205 -0.1612089 0.008565282 -0.22368215 -0.03203413 0.089426555 0.25283867 -0.26217353
0.074030936 -0.26550102 -0.15491815 -0.09271133 -0.025688285 0.05141144 -0.044838186 -0.124637365
0.16249055 -0.24404651 -0.12721036 -0.05448912 -0.21580872 -0.043349214 0.17444643 -0.22156602
-0.134909 0.2587565 0.06464074 -0.216202 -0.1894124 -0.15448503 -0.18124352 0.27763286
0.24855906 -0.15253562 0.08823548 0.06470728 0.20038067 -0.06707976 -0.033714894 -0.16438411
0.047270104 -0.15777943 0.23341566 -0.14297068 0.27493376 0.091817565 -0.020382566 0.12321094
-0.04641461 -0.2741925 -0.18906792 -0.0059888507 0.09189409 -0.14804795 -0.060467046 0.12424965
00000000: 3ab8 e23d 2da3 08be f60d aabd e215 9f3d
00000010: f9d8 9dbb 200d 6fbe 4127 8abe 521f 573e
00000020: 57ba 683e a313 3fbe 9e80 823e 638b c73d
00000030: 5300 843e 85af fd3d b7dc db3d f80e 4bbe
00000040: 759f fcbc 1ffc bdbc 4384 bd3c 1c7d 61bd
00000050: 865a 21be a4da 8c3e a872 973e 4232 683e
00000060: 61a1 5e3e 1399 803e 981f bf3c 740f 1d3e
00000070: 98c0 e7bb 7287 fa3d 0f29 843d 606f 50be
00000080: f94f 0ebe cb20 8b3d 6563 0f3e b75f b93d
00000090: fdc4 91be f3f4 873e 179d 2c3e 3099 6abe
000000a0: 6478 4bbe a9d6 743d 3678 843e b625 c7bd
000000b0: b636 80be c806 613d e168 93bd 76ad 043e
000000c0: e21f 21be f911 8bbe 3ae5 5abe 2679 373d
000000d0: a756 9b3e 2cff cfbd f5b7 2dbe 2b82 a5bc
000000e0: 358e 903e 590e e33d c3d6 553e 9ca2 aebc
000000f0: 029b 9c3e 8fb9 2f3e 988a e3bd d28d b93d
00000100: aaed 923e 9757 1f3e d514 4dbd febb 983b
00000110: 2ab0 2abe 68bb 0e3c 0f68 463e b28f 2f3d
00000120: 32ee 8f3b 74a8 7b3e f607 2bbe a4d1 57be
00000130: 54e2 a53d 3fd9 43be 3bee 72be 951a ce3d
00000140: 0cab a53d cb0a 2ebe a019 61bd a3a6 223e
00000150: c1b2 16be 2e21 88be 6a66 4cbd abed 6abe
00000160: 238e 5dbe 95ba 263e f27a ddbd aa9e 95be
00000170: 5124 bf3d da9e 7dbc cab7 56be fb00 99be
00000180: 823e f73d 1b22 54be eda0 d9bd 70b1 953e
00000190: 7fd6 0d3e 9c08 05bc 8a1c 39bd f1e2 d23d
000001a0: 3cbe 2bbe 6f0b 1fbe 09f1 cfbb 89cc 823e
000001b0: 9288 8bbe 3452 97bb c66f 72be b3ee b53d
000001c0: 1a0f d03d 3da8 2d3e 816b 8bbe b6eb d239
000001d0: cec5 883e ee1a 2d3e 300d 893e 34ef dc3d
000001e0: 9189 38bd 81af 0f3e ebe1 6f3e aaf2 95be
000001f0: 64f8 87bd b6fc 8f3e 8d79 4c3e f630 5d3d
00000200: bee6 0ebe 9f3f 23bd 5d99 b1bc 5063 31be
00000210: 3670 963e fe21 bd3d 7d0f 473e 4cf8 2fbe
00000220: 6091 73bd ad0b 303e fc56 86be a92b 16be
00000230: 91f8 8f3e da2a 633e 7c17 65be acd7 5fbe
00000240: bfac 833e 40f4 2dbe 84a7 143e 476c e0bc
00000250: 89f1 1c3d 2009 b8bd 1bbf 43be 0a0b 183e
00000260: cfe0 263e d654 c5bb db4d b2bc ff29 95bd
00000270: c349 8dbd 3326 9e3e 83eb 6bbe e1f8 6c3d
00000280: 72e3 303e f556 1e3e d1bb 643e 63d5 f83c
00000290: ebe0 1cbd 7abb ce3d 9840 143e 87c9 0c3e
000002a0: 196a 37be 5a2c febd b90b 763d b733 53be
000002b0: cfad 87be 6168 673e 92aa 543e 24fa 4a3d
000002c0: a385 02be e798 6ebe 552d 4e3e 0979 47bd
000002d0: 6ec2 5e3d e392 febd 881a c13d f052 c5bd
000002e0: 7754 d13c b13e b13d 9d16 5bbe 92ea d63d
000002f0: 1f78 8f3e 4fb6 c2bc b691 29bd f6aa 83be
00000300: 173e 54be 301a 493e 450d 473d 4932 9bbd
00000310: e75a 0cbd 5248 203e 9d92 8abe 2f0a 8c3d
00000320: e0e8 d9bd f213 25be 6655 0c3c ef0c 65be
00000330: 3836 03bd 4525 b73d 1274 813e 9c3b 86be
00000340: 889d 973d c0ef 87be dda2 1ebe 70df bdbd
00000350: 3d70 d2bc cd94 523d 3fa8 37bd e041 ffbd
00000360: ec63 263e 54e7 79be 6f43 02be fc2f 5fbd
00000370: f6fc 5cbe f28e 31bd 16a2 323e 34e2 62be
00000380: 9625 0abe bb7b 843e 5d62 843d 0f64 5dbe
00000390: 53f5 41be 5331 1ebe e797 39be e525 8e3e
000003a0: 4486 7e3e 4c32 1cbe ceb4 b43d 4085 843d
000003b0: 9730 4d3e 1d61 89bd a118 0abd 4f54 28be
000003c0: 4c9e 413d ee90 21be 8404 6f3e e866 12be
000003d0: 1ec4 8c3e d90a bc3d 57f9 a6bc 0456 fc3d
000003e0: 3f1d 3ebd f662 8cbe 059b 41be 1f3e c4bb
000003f0: f832 bc3d e299 17be 4bac 77bd 9a76 fe3d

linear1.bias f4 [256]
-0.034699578 0.28557536 -0.0015601881 0.27110493 0.2893838 0.12865523 -0.2274449 0.18805116
-0.19965716 -0.2196379 0.11112159 -0.10491224 -0.13330573 0.23596251 0.10281964 -0.05573513
-0.032461356 -0.022240492 0.20212892 -0.044194877 0.25196466 0.14855818 -0.16638575 -0.23612145
0.2323949 0.09526853 0.22832668 -0.27912936 -0.053825382 0.07262878 -0.050061084 -0.034204476
-0.120405905 0.11730917 0.19905685 -0.019188313 0.20791115 -0.14948297 -0.21117358 -0.2908249
-0.2564005 -0.19739488 0.11379858 0.27068853 0.19297816 0.28088298 -0.28813845 0.26387212
0.13584471 0.22851509 0.09826825 -0.19457863 -0.053983778 0.08037737 -0.15881139 0.12002414
-0.14053164 -0.15175578 0.12441267 -0.144489 0.22304693 -0.049361676 -0.064145476 0.14226341
0.27169424 -0.038055934 0.17195764 -0.17234449 0.048547164 0.098740324 0.0733959 0.15504104
0.091354534 -0.23925315 -0.24965835 0.020285774 -0.10560183 0.03824629 0.016562851 -0.17120434
-0.2130305 0.13708413 0.1316185 -0.08247281 -0.11289333 0.14956231 0.009695262 0.29751945
0.07861701 -0.22195454 -0.028719457 0.22331688 -0.08206478 -0.19153552 0.019701438 -0.25179768
0.2066463 -0.2625872 -0.14816745 0.111377634 0.10236809 0.01502557 -0.063015014 0.120729946
-0.11486888 0.0825454 -0.12639256 0.06840842 -0.21109833 -0.15023227 -0.03921929 -0.17175728
0.076636136 -0.2209021 -0.28942668 -0.1857816 0.100613244 -0.061207462 -0.00265855 -0.22085533
-0.23603319 -0.045786884 -0.1213905 -0.19922467 -0.05932266 0.18886471 0.26301977 -0.14255759
0.22484319 -0.003588578 -0.023281198 -0.29831672 -0.018880002 0.25235355 -0.023124013 0.066246234
-0.1622168 -0.038561724 0.03832317 -0.07723947 -0.25664946 -0.105959676 0.016021356 0.03194556
0.09965868 -0.026888905 0.065222666 -0.25105786 -0.2444148 0.07077657 -0.1982031 0.2394756
-0.27373028 0.06047489 0.16241272 0.014644864 0.20973282 -0.077476114 0.12825902 -0.15529077
0.28423503 0.21264102 -0.10129254 -0.20363781 0.013118411 -0.0047035003 0.2840753 0.24995214
-0.03701877 0.17956823 0.1338506 -0.039649066 -0.10017828 0.15844846 -0.030535728 -0.12407929
0.17348853 0.020341052 -0.24223486 -0.28196773 0.14104405 -0.08502664 0.22672246 0.048276164
-0.035364598 0.042911235 0.20595594 0.015603131 0.15125939 0.25034443 -0.058884267 -0.09920901
-0.090772815 0.06568003 -0.27305284 -0.22722636 0.1431358 -0.024710312 -0.025138307 -0.0562946
0.07984032 0.06399934 -0.019916425 -0.0516697 -0.25068548 0.050184093 -0.07627747 0.19576734
-0.16453278 0.09637512 0.02183046 0.27629018 -0.23684156 0.1365029 0.15495197 -0.1672118
-0.13635421 -0.14972986 0.09890559 -0.0014151968 0.10798661 -0.15541692 -0.28907585 -0.2827182
-0.24584103 -0.2631764 0.02068194 -0.25560537 0.16428144 -0.15293662 0.066744044 -0.22489639
-0.26304367 -0.011817559 -0.22211948 0.12759325 0.19566065 0.0495041 -0.121244326 -0.1724743
-0.07335975 -0.14110875 0.038232215 -0.21343252 0.16536383 -0.16914746 -0.23004296 0.14269292
0.13592426 0.01281564 -0.22006325 -0.11247156 -0.17269348 0.13123542 0.27948457 0.0064322883
00000000: 2521 0ebd ef36 923e 3a7f ccba 44ce 8a3e
00000010: 1d2a 943e 32be 033e 51e7 68be 7c90 403e
00000020: ed72 4cbe c2e8 60be b793 e33d 3adc d6bd
00000030: 4c81 08be 28a0 713e 1a93 d23d 854a 64bd
00000040: 33f6 04bd b131 b6bc e2fa 4e3e b005 35bd
00000050: 8301 813e a31f 183e 0761 2abe d2c9 71be
00000060: eef8 6d3e 261c c33d 78ce 693e 0bea 8ebe
00000070: 0178 5cbd 66be 943d da0c 4dbd fe19 0cbd
00000080: 5f97 f6bd ca3f f03d 8fd5 4b3e cf30 9dbc
00000090: a9e6 543e 1012 19be e33d 58be 00e7 94be
000000a0: ed46 83be e221 4abe 3b0f e93d b097 8a3e
000000b0: 119c 453e e5cf 8f3e e286 93be 3f1a 873e
000000c0: e01a 0b3e dcff 693e dd40 c93d 9f3f 47be
000000d0: 181e 5dbd e49c a43d 749f 22be 37cf f53d
000000e0: 87e7 0fbe de65 1bbe 12cc fe3d edf4 13be
000000f0: 6a66 643e 782f 4abd b45e 83bd 80ad 113e
00000100: 821b 8b3e 8ae0 1bbd aa15 303e 137b 30be
00000110: 64d9 463d 5e38 ca3d 9750 963d 14c3 1e3e
00000120: 1618 bb3d c7fe 74be 70a6 7fbe 5a2e a63c
00000130: c645 d8bd 24a8 1c3d d1ae 873c 3150 2fbe
00000140: ab24 5abe c85f 0c3e 00c7 063e 81e7 a8bd
00000150: 9e34 e7bd dd26 193e e0d8 1e3c 7854 983e
00000160: f401 a13d 0d48 63be 1145 ebbc 2ead 643e
00000170: 9411 a8bd e321 44be e964 a13c a0eb 80be
00000180: 169b 533e d471 86be 35b9 17be f519 e43d
00000190: 5ca6 d13d cf2d 763c 040e 81bd 4341 f73d
000001a0: 6040 ebbd 900d a93d 0d6d 01be b719 8c3d
000001b0: 292a 58be 7dd6 19be 68a4 20bd 24e1 2fbe
000001c0: 68f3 9c3d 2934 62be bc2f 94be 883d 3ebe
000001d0: 510e ce3d adb4 7abd 113b 2ebb e627 62be
000001e0: afb2 71be 078b 3bbd 959b f8bd 8d01 4cbe
000001f0: 51fc 72bd c065 413e 87aa 863e 9efa 11be
00000200: 4b3d 663e 592e 6bbb 36b8 bebc f8bc 98be
00000210: 3caa 9abc 7c34 813e 926e bdbc 1bac 873d
00000220: 291c 26be e6f2 1dbd c2f8 1c3d ba2f 9ebd
00000230: 8f67 83be 6301 d9bd 383f 833c 59d9 023d
00000240: da19 cc3d 1f46 dcbc 7693 853d a88a 80be
00000250: e047 7abe 4ef3 903d c1f5 4abe 1739 753e
00000260: 6026 8cbe 85b4 773d 854f 263e 03f1 6f3c
00000270: 33c4 563e ccab 9ebd 5556 033e 8b04 1fbe
00000280: 4187 913e 91be 593e 7772 cfbd 6e86 50be
00000290: 9bee 563c d21f 9abb 5172 913e 74f3 7f3e
000002a0: fea0 17bd bce0 373e 2210 093e 0f67 22bd
000002b0: 452a cdbd 5040 223e 1026 fabc 481d febd
000002c0: faa6 313e 47a2 a63c 6a0c 78be 135e 90be
000002d0: da6d 103e 7222 aebd ef29 683e 3abd 453d
000002e0: 78da 10bd b1c3 2f3d 1de6 523e 46a4 7f3c
000002f0: bee3 1a3e 252d 803e a130 71bd 182e cbbd
00000300: 19e7 b9bd 4083 863d 95cd 8bbe 07ae 68be
00000310: 3192 123e 486d cabc daee cdbc 2b95 66bd
00000320: 5283 a33d 1612 833d c527 a3bc 9ba3 53bd
00000330: d959 80be d68d 4d3d 5d37 9cbd 3c77 483e
00000340: 487b 28be 5260 c53d cbd5 b23c e875 8d3e
00000350: 9886 72be 6bc7 0b3e bbab 1e3e 9239 2bbe
00000360: 70a0 0bbe c952 19be 048f ca3d 207e b9ba
00000370: 1528 dd3d 9d25 1fbe c001 94be 71c0 90be
00000380: c0bd 7bbe 0fbf 86be 2c6d a93c b5de 82be
00000390: 6539 283e 6b9b 1cbe 1ab1 883d 3d4b 66be
000003a0: a9ad 86be 6f9e 41bc 4a73 63be cea7 023e
000003b0: 445b 483e d0c4 4a3d f24e f8bd 1a9d 30be
000003c0: a33d 96bd d07e 10be 6299 1c3d 0e8e 5abe
000003d0: 2355 293e fe34 2dbe 6290 6bbe 181e 123e
000003e0: bb2f 0b3e b1f8 513c 4358 61be 7d57 e6bd
000003f0: 8fd6 30be 9462 063e 9a18 8f3e f2c5 d23b

linear2.weight f4 [3, 256]
-0.026023563 0.044974044 -0.03086921 -0.036762282 0.009143687 -0.026522096 0.014849102 -0.030665625
-0.00913775 -0.022595018 0.047062337 0.017377969 -0.042615775 -0.023200871 0.04594442 0.014924448
0.010075372 0.028715957 -0.037549675 -0.05195489 -0.043086782 0.018204512 -0.048619755 -0.033816524
0.027862988 0.026752584 0.048281394 -0.021368943 -0.038422022 0.004771197 0.046668846 0.019137373
-0.07340836 -0.043250125 0.050649025 -0.014060642 0.038760114 0.040375136 -0.04216062 -0.04510005
-0.014021531 -0.042714674 -0.026469827 -0.048819356 -0.045571797 -0.04789069 0.013325478 0.014356482
0.019087741 -0.042359088 0.005293082 0.061055213 -0.060344346 0.006847721 -0.0215196 0.06342694
-0.023831503 0.015996777 0.00065620587 0.021558173 -0.06588625 0.013595725 0.0073984014 0.021182938
-0.06138582 0.03179446 0.05050956 0.043113686 -0.046283934 -0.028989041 0.0135925375 -0.013718988
-0.064870186 0.019868508 -0.0595185 -0.009779642 -0.012229148 0.019417748 0.017041115 0.020813558
0.033552594 0.054219954 -0.023215711 0.027215865 -0.019031417 -0.05672071 0.031853646 -0.06701876
-0.003661777 -0.028084809 -0.030507475 0.040132165 -0.019721434 0.018199047 -0.043018922 0.031080702
-0.06257316 -0.039069973 0.03730604 0.04176956 -0.033669047 0.004293762 -0.023817409 -0.047208462
-0.06554088 -0.027372178 0.0046587214 0.018334135 -0.027265899 0.013023568 -0.046798665 -0.05598642
0.0357358 -0.007016155 0.044809066 -0.010681951 -0.010613064 -0.021043187 0.004538576 0.016794289
0.03085838 0.030119464 -0.007719619 0.009955305 0.037053876 -0.045524526 0.016520998 0.02780916
0.022749875 0.028605476 0.0056665638 -0.046191234 -0.027658608 0.050706033 -0.023875386 -0.03954514
0.017021772 0.035310265 -0.060874425 0.013080865 0.0045878626 -0.036769643 -0.033689916 -0.002056029
0.06017383 0.03448367 -0.038785923 0.019261487 0.0015631194 0.02713015 0.0043051764 -0.0081174765
-0.047784515 0.036830086 0.019163989 -0.025681656 -0.039624386 -0.05330977 0.04501988 -0.024222614
-0.048830166 -0.047456283 -0.015328432 0.0070129647 0.04006713 0.02371707 -0.038915884 -0.010874572
-0.04418971 0.04116175 0.03299493 -0.040655352 0.046921723 -0.04320692 -0.017273705 0.03633472
-0.051046513 -0.03405395 0.010194413 0.011587272 0.030129537 0.049976546 0.037168663 -0.036410037
-0.0065666507 0.049482375 -0.009826324 0.014853262 -0.0568364 -0.049486402 0.052458063 -0.009484961
0.035745367 -0.0031487087 -0.07067781 0.012557008 -0.0363307 0.045965765 0.04637346 -0.044020303
0.0030100155 -0.071012326 0.026001463 -0.041393384 0.03372099 -0.051088687 -0.047462936 -0.009370662
0.008476727 0.030999009 0.054890525 -0.026478857 0.0011410415 0.05737751 0.047348984 -0.01892556
0.03756331 0.046987582 0.04209108 0.056389183 0.02322284 -0.034868047 -0.028635701 -0.03405669
-0.042921618 -0.043071546 0.0071892594 0.024196554 -0.014603424 -0.049892694 -0.038172442 0.038050495
0.048124526 -0.051857375 -0.014661427 -0.022945505 0.041995753 0.013359253 -0.052958712 0.04716754
0.009196043 0.017770777 -0.0166137 0.004518084 -0.039687954 -0.034441218 -0.033905704 -0.0556054
0.0063659158 -0.05967943 -0.007324964 -0.03326789 -0.04834979 -0.043116957 0.0037744287 0.046013877
00000000: 5e2f d5bc b436 383d 6de1 fcbc 0c94 16bd
00000010: 67cf 153c de44 d9bc a649 733c 7a36 fbbc
00000020: 80b6 15bc 3019 b9bc 70c4 403d 3e5c 8e3c
00000030: e18d 2ebd c10f bebc 3730 3c3d ac85 743c
00000040: 2c13 253c ba3d eb3c b0cd 19bd a7ce 54bd
00000050: c47b 30bd a121 953c 8225 47bd 3283 0abd
00000060: ec40 e43c 3c28 db3c b6c2 453d ec0d afbc
00000070: 6960 1dbd b457 9c3b d527 3f3d fbc5 9c3c
00000080: 1f57 96bd 0b27 31bd 5a75 4f3d 9b5e 66bc
00000090: edc2 1e3d 6660 253d 9db0 2cbd d4ba 38bd
000000a0: 90ba 65bc 95f5 2ebd 40d7 d8bc cef6 47bd
000000b0: 7ea9 3abd 0729 44bd 1b53 5a3c 7337 6b3c
000000c0: e55d 9c3c b980 2dbd 9771 ad3b 0815 7a3d
000000d0: a22b 77bd d962 e03b df49 b0bc fce5 813d
000000e0: 493a c3bc ac0b 833c 3b05 2c3a c49a b03c
000000f0: 5fef 86bd 9bc0 5e3c 4a6e f23b d787 ad3c
00000100: b36f 7bbd e83a 023d 1de3 4e3d fa97 303d
00000110: 3994 3dbd 6d7a edbc 3cb3 5e3c 9bc5 60bc
00000120: a9da 84bd 48c3 a23c acc9 73bd cb3a 20bc
00000130: c45c 48bc f811 9f3c cf99 8b3c 3281 aa3c
00000140: 726e 093d be15 5e3d e02e bebc cef3 de3c
00000150: c6e7 9bbc fa53 68bd f878 023d 2241 89bd
00000160: 6cfa 6fbb 1d12 e6bc d0ea f9bc a061 243d
00000170: d88e a1bc 2b16 953c 9c34 30bd f59c fe3c
00000180: 5b26 80bd d607 20bd 38ce 183d 8f16 2b3d
00000190: 8ee8 09bd b0b2 8c3b ba1c c3bc a95d 41bd
000001a0: 4c3a 86bd 9e3b e0bc 30a8 983b 7831 963c
000001b0: bc5c dfbc ce60 553c f5af 3fbd 0452 65bd
000001c0: b45f 123d c6e7 e5bb b689 373d 5a03 2fbc
000001d0: 6be2 2dbc c362 acbc 56b8 943b 2d94 893c
000001e0: b7ca fc3c 18bd f63c dcf4 fcbb 931b 233c
000001f0: cec5 173d ed77 3abd 0b57 873c 09d0 e33c
00000200: f25d ba3c 0856 ea3c 95ae b93b 0533 3dbd
00000210: 4e94 e2bc 21b1 4f3d 5096 c3bc 16fa 21bd
00000220: 3e71 8b3c 7fa1 103d 7657 79bd 2051 563c
00000230: c855 963b c49b 16bd 70fe 09bd 71be 06bb
00000240: d578 763d c03e 0d3d fddd 1ebd 44ca 9d3c
00000250: 95e1 cc3a 0c40 de3c 7012 8d3b 2aff 04bc
00000260: b2b9 43bd 25db 163d ccfd 9c3c 5662 d2bc
00000270: 2e4d 22bd 585b 5abd c466 383d 816e c6bc
00000280: 2402 48bd 8561 42bd 1b24 7bbc 03cd e53b
00000290: 6e1d 243d 4d4a c23c 4366 1fbd 432b 32bc
000002a0: 4500 35bd 3999 283d b125 073d 3a86 26bd
000002b0: fe30 403d bdf9 30bd 9681 8dbc b7d3 143d
000002c0: 2616 51bd 287c 0bbd 7806 273c 8bd8 3d3c
000002d0: 38d2 f63c 35b4 4c3d 2b3e 183d b122 15bd
000002e0: 0f2d d7bb 08ae 4a3d 97fe 20bc 195b 733c
000002f0: 49cd 68bd 41b2 4abd 44de 563d cf66 1bbc
00000300: bc69 123d 915a 4ebb 87bf 90bd e9bb 4d3c
00000310: 80cf 14bd 9946 3c3d 19f2 3d3d a24e 34bd
00000320: ae43 453b e96e 91bd 0501 d53c 1c8c 29bd
00000330: 051f 0a3d 5f42 51bd 7f68 42bd 6887 19bc
00000340: f8e1 0a3c a2f1 fd3c e3d4 603d 30ea d8bc
00000350: 008f 953a ae04 6b3d 02f1 413d c709 9bbc
00000360: fcdb 193d 0d76 403d b267 2c3d 58f8 663d
00000370: d33d be3c ccd1 0ebd 6b95 eabc 077f 0bbd
00000380: 94ce 2fbd ca6b 30bd e193 eb3b da37 c63c
00000390: 3343 6fbc 485c 4cbd b55a 1cbd d6da 1b3d
000003a0: 391e 453d 6668 54bd 7b36 70bc 36f8 bbbc
000003b0: bd03 2c3d c5e0 5a3c 3ceb 58bd c032 413d
000003c0: 00ab 163c 0594 913c 7419 88bc 700c 943b
000003d0: d68f 22bd 3c12 0dbd b5e0 0abd 7dc2 63bd
000003e0: 2c99 d03b 6b72 74bd 4006 f0bb e943 08bd
000003f0: 6e0a 46bd 689b 30bd 685c 773b 0c79 3c3d

linear2.bias f4 [3]
0.01852446 0.034761764 -0.009296687
00000000: 9cc0 973c 5a62 0e3d 2251 18bc
