v1/model/model.pth (torch, 17216 bytes, 4 tensors)

linear1.weight f4 [256, 11]
00000000: c305 3ebe b2b7 33be dff7 cf3e da87 9e3e
00000010: bdd6 b53e 7942 bcbe 239a aabe 8b43 a03e
00000020: 5347 953e 0105 c4be 63f8 8bbe 85ab 27be
00000030: b506 e3bd 190b 553e 6b04 5b3e f23a 47be
00000040: 8b0d 68be ca07 c73e d5a0 753e 3c8e c4be
00000050: 784e 6bbe 7d4a b1bd d9bb 72be 80e7 abbd
00000060: 0d81 48bd 011e 70bc f5fc b9be 6d3a 633e
00000070: 749c 1ebd b6d7 9cbd 2288 a33e 0f20 abbe
00000080: fc13 7fbc 0cb3 843e 1975 e0be 27f1 f3ba
00000090: b16f 83be c05d 2fbe 0923 87be 5db4 803e
000000a0: bf61 a83e 1ea7 71bd 884f 9a3e a793 63be
000000b0: dc19 40be fbdf d33e a7b9 c7bd d914 593e
000000c0: 44df 223c 17e2 973e a0f7 05be 24e3 773e
000000d0: a199 9cbd b2e4 a8bd 63a1 6d3e fe55 423c
000000e0: 80af 0b3f 9466 5cbc 1271 b9be 5d09 99be
000000f0: 2bea 88be 4c6f 293e baad 89be a813 0c3e
00000100: 381d 443e ae9d 513e 934e 9e3d acd8 cabd
00000110: 627e 3dbd 0624 5fbe 412d 13bf ca3f b43d
00000120: 2211 e0be ccb0 cdbe 25f0 b4be 81ac 8b3e
00000130: e175 d4be 894b 7d3e 9914 693e 0236 50bd
00000140: cc64 9dbe baa8 39be 9785 3ebd 233c 84be
00000150: 2aa8 e43e a3a3 a5be c6e6 993e 2948 be3e
00000160: 0104 b5be a55a 8f3e bc47 883e e869 05bf
00000170: d55b 93be 039e b73e ada3 2cbd 21c6 f2be
00000180: a1f9 26bf 5c9e 883d 7906 c7bd 4fb6 a33e
00000190: e0ac 2c3e 1b63 47bd 9790 fabd 5b8b 27be
000001a0: 7a2f ccbd 3fb9 89be 0278 e13e e161 983e
000001b0: 7eae 663e 9286 d53e 10c1 93be 70cd 493e
000001c0: 8db0 85be 6e9c c83e 2d9f 993e 4dfc b53e
000001d0: 54ec 4b3e 1516 74bd 58f2 76be d5cf 9dbe
000001e0: f298 e1bc 1771 62bd b860 8ebe 09ef f73e
000001f0: 2e3e 72bd 1518 3abe 8109 62bd aaf9 49be
00000200: f3ed d33d 7e91 a03c b432 453e a9ed 18be
00000210: 088e 9d3d b468 6dbe 5a46 c63e b4a2 17be
00000220: eb2b ae3b feb1 27be 6b99 233e 6f43 cc3e
00000230: 5b5c c33e f89e 143e 17a1 693d dbfd 8abd
00000240: 09c9 d2bd 7c8b 983e 759e af3e f080 183e
00000250: 5445 37be 732d e2be b0fd 373e 81e1 d93e
00000260: 89cf 1cbe 988e a6be c6cf b4bc ad98 63bc
00000270: fced 243e d41d 413e 7365 77bd 7837 153e
00000280: 28c1 da3d 29d9 863e 14f9 c03d 0032 443e
00000290: 744e dcbc 10bf 8b3d 14f6 a2be 45a0 6c3e
000002a0: a9d1 873e 5090 57be 182a 483e b7d1 03be
000002b0: 494b 82be 627f a73e 2e7f febc f47f 9dbd
000002c0: 577d 013f c7df 21be 8268 50bc 0619 8fbe
000002d0: 45c7 b03e aa9d b1be c33a 7c3e adf3 9f3e
000002e0: e184 8fbe ef42 dc3e f7ef 6cbe d9a0 a2be
000002f0: a4a9 e13c a121 ddbc c303 8d3d 7af4 c3bd
00000300: cf3a 8ebe f727 94bc cf8d 1a3e 8385 a73e
00000310: 9d61 df3e c247 643e 9e4a 5cbe e6aa 93be
00000320: 157b 9cbd 97d4 d4be d38d 843e 91f5 3f3e
00000330: 7d11 c23e 2a46 37bf 4c7d 0ebd 5461 973d
00000340: 2c8f 2dbd d768 693d 0b6a 893d ec93 e23e
00000350: f082 353e 4d20 2a3d 2972 263d cfe6 a83d
00000360: 582a 0f3e d08d 8e3e bb0f e13d 9220 173e
00000370: 8046 9f3e ec2b 75be 53ce c3be 2ab1 22be
00000380: 0001 7bbe c484 f63c f7f6 bcbb dd04 2e3d
00000390: 08b3 df3d 0500 86be c594 16be d0f4 e13d
000003a0: 6d56 d23c 8200 a73d c18b ccbe 310c 893c
000003b0: 23bd 713e 4990 bdbd f436 ca3e 1ad4 bcbc
000003c0: ff50 16be ee1c b63d 1047 5ebd 0ed7 eabd
000003d0: 0391 39bd 094b 48be b742 6c3d 85a9 153f
000003e0: 6673 28bd db37 e3bc 2501 ecbd f4a6 a8be
000003f0: 54ae 3c3e ae88 01bd a8f7 1f3f d6c6 abbe
-0.18556885 -0.17550543 0.40618798 0.30963022 0.35515395 -0.36769465 -0.33320722 0.3130153
0.2915598 -0.38285068 -0.27337942 -0.16374023 -0.11085264 0.20805015 0.21388404 -0.1945608
-0.22661416 0.3887313 0.23987134 -0.38389766 -0.22979152 -0.08656786 -0.2370447 -0.083937645
-0.048951197 -0.014655591 -0.36325803 0.22190256 -0.038723424 -0.07658331 0.319398 -0.33422896
-0.0155687295 0.25917852 -0.43839338 -0.0018611298 -0.2567115 -0.17125607 -0.26393917 0.25137606
0.32887074 -0.058997266 0.30138803 -0.22224294 -0.18759865 0.4138182 -0.09752207 0.21199359
0.009940926 0.2966468 -0.13082743 0.24207741 -0.0764649 -0.08246745 0.23206095 0.011861322
0.54564667 -0.013452191 -0.36219078 -0.29889956 -0.26741156 0.16546363 -0.26890355 0.13679373
0.19151771 0.20470306 0.077298306 -0.09904608 -0.046263106 -0.21791086 -0.57490927 0.08801229
-0.4376307 -0.40173948 -0.35339466 0.27280048 -0.41496184 0.24735846 0.22761764 -0.050832756
-0.30740964 -0.1813077 -0.04651412 -0.2582713 0.4465955 -0.32351407 0.3005888 0.3716443
-0.35354617 0.27998844 0.2661723 -0.52114725 -0.28781 0.3586274 -0.04214828 -0.47416785
-0.65224653 0.0667083 -0.097180314 0.31975028 0.16862822 -0.0486785 -0.122346096 -0.16361754
-0.09969993 -0.26899144 0.4403687 0.29762176 0.22527501 0.41704232 -0.28858232 0.19707274
-0.2611126 0.39181846 0.30004254 0.35544053 0.19914371 -0.05959137 -0.24115884 -0.30822626
-0.02753875 -0.055283632 -0.27808166 0.48424557 -0.05914133 -0.18173249 -0.055184845 -0.19724146
0.103481196 0.019600626 0.19257623 -0.1493441 0.07693106 -0.23184472 0.3872555 -0.1480816
0.005315294 -0.16376492 0.15976493 0.39895198 0.381564 0.14513767 0.057038393 -0.067867
-0.10292251 0.29793918 0.3430058 0.14892936 -0.1789754 -0.441753 0.17967868 0.42554858
-0.15313543 -0.32530665 -0.02207173 -0.013891381 0.16106409 0.18859035 -0.060399484 0.14571941
0.10681373 0.26337555 0.09422508 0.19159698 -0.026892878 0.06823552 -0.31828368 0.23108013
0.26527146 -0.21051145 0.19547307 -0.12872969 -0.25448063 0.32714373 -0.031066503 -0.07690421
0.5058188 -0.1580802 -0.012720229 -0.2794878 0.3452703 -0.346906 0.24631791 0.31240597
-0.28031066 0.43019816 -0.23138414 -0.31763342 0.027546711 -0.026993575 0.06885483 -0.095681146
-0.27779242 -0.018085463 0.15093158 0.3271905 0.4362916 0.22292998 -0.21512839 -0.28841323
-0.076406635 -0.41568443 0.25889453 0.1874602 0.37903967 -0.71591437 -0.03478746 0.07391611
-0.042372867 0.05698475 0.06709679 0.4425348 0.1772573 0.04153471 0.040636215 0.08247148
0.13980997 0.2784257 0.109893285 0.14758518 0.31108475 -0.23942536 -0.3824335 -0.15887895
-0.245121 0.030092604 -0.005766745 0.042485107 0.109228194 -0.2617189 -0.14705189 0.110330224
0.025675977 0.08154394 -0.39950374 0.016729446 0.23607306 -0.09256036 0.3949505 -0.023050357
-0.14679335 0.08892237 -0.05426699 -0.114668 -0.04530431 -0.19559874 0.05768081 0.5846179
-0.041125678 -0.027736595 -0.11523656 -0.32939875 0.18425876 -0.03162449 0.6248727 -0.33550137

linear1.bias f4 [256]
00000000: 4235 a2bc c8df 273b 3a74 b03d 0043 34be
00000010: 7132 6dbe 359c c53d 8bfb 813e 7aa4 5ebe
00000020: eb09 c13e 6b88 60be 64b0 0f3f 1a5c 4d3e
00000030: 036d 88bd 0539 04bd 7d68 a7ba cc64 6abe
00000040: f352 babd 2e50 6abe 0468 c83e 8261 4bbe
00000050: 0515 073e ba3d 16be 0e9b 14be 6bfa a9bd
00000060: b9e5 14be 5e28 51be 6e2b 8ebe 812a 0cbe
00000070: 2b83 26be 058b f2bd 1430 e13d 8fd3 b2be
00000080: 611d 11bd dc1c 5fbe 1854 1cbe 2445 8ebc
00000090: f5e4 013e 880c 883e bdfb 8dbe 76c5 ccbd
000000a0: 0655 eebe a8f3 6f3e 2a13 ddbd 4478 91bb
000000b0: 4c26 88be a945 553e 5a72 aabd a08d 0c3d
000000c0: b458 47be 8349 73be 220f c5bd ba9b 913e
000000d0: ad2b a7bd ec2d f2bd 142d 97bd b851 e4be
000000e0: 6570 5c3b 340c 6ebe 2d72 d2bc 2c04 f6bd
000000f0: 7c36 4fbe 7771 72bc b7b8 7e3d 5cc9 41be
00000100: c1f1 babd 64de 6cbe f685 9ebd 30ef 0abe
00000110: 49ab 7bbe 4b56 b2be 78af a9bb 8851 abbd
00000120: 9392 25be 52e5 3fbd 1f83 63be 6631 0dbe
00000130: 76ad 81bc e296 98bd cf18 db3d f609 0fbe
00000140: 09f0 81be 2a41 3b3d de1c 92be eec8 dbbd
00000150: d4ef 86be a637 713d 4640 39be db2f 933d
00000160: a17c c7bd 8d39 25be 2a57 9bbd 0dfa 35be
00000170: fcd1 66bd d247 24be de05 0cbe 3cf0 57be
00000180: 5f84 3ebe 63bc 79bd 7b59 8e3e 86b0 79be
00000190: cc59 8dbe c3d7 cc3d d863 7ebe d847 37be
000001a0: 42d2 8cbd fcb9 f8bd e350 573d bb1a 9e3c
000001b0: 3199 713d 2557 65be 1d18 363d 6064 0c3e
000001c0: 65a9 523e 0d04 073d ba82 20be 793b a6bd
000001d0: 669a 59be 3e0b 07be 2dbf bfbd 1a82 38be
000001e0: 9c37 43be 4108 96be b5d5 5b3d fb04 33be
000001f0: 2d1e fcbd 8816 913d 7c8e 7bbe 5fd7 4f3e
00000200: 6581 a8be a511 60be 34e1 01be 3889 b23b
00000210: bd2f 5cbe 5a0b e53d 7371 71be baab 2dbe
00000220: 06e1 40be 63db d3bd b6b3 8ebe 485c 58be
00000230: e1b7 1c3e 87d2 d6bc ba4e e9be 254a f53d
00000240: d1c0 1fbd 38c5 63bd d686 d6be 816e 863e
00000250: d8bb c43d 435e 02bf c790 67be 551a ccbc
00000260: b213 9abd eb69 e43c a76f 8bbe 341c 0abe
00000270: 1eae 02be 199e 613d 8549 c73d 0b55 483e
00000280: 2c03 4ebe 6b35 54be 829a cabe eb7f 9bbc
00000290: 9f69 e5bd 0910 dfbd 4587 863e c8ca 6f3d
000002a0: c3bd 0bbd 8e63 373d 27ba 8ebe 04f1 f5be
000002b0: c1bd 93bd e3e8 9c3c 93ed a33e 2e90 64be
000002c0: 792f 15be 0ca2 523e f1d6 6f3e 3f5d 0bbe
000002d0: 0946 8b3d 6292 223e ccd1 bebc 0c74 c9be
000002e0: 0023 62be 842a b3bd 6a9a 93bd 5572 e73c
000002f0: 6daa ffbd e28f 56be 8b7a 1cbe f44b 0fbe
00000300: d14e 843d 450c d63c b362 b0be 4496 873d
00000310: b4ff c93e 2603 373e 0d4d 633e 129f 99be
00000320: 29d9 ae3d 7c95 aebe 8d72 9ebd 2126 1c3e
00000330: 96f7 343a 8d6c 7d3c 8593 3ebc f38b ad3e
00000340: b43a 393e 90d8 893e 82a7 63bc f4e8 b43c
00000350: ede0 60be aada bebe fb33 0ebd eb4c a4bd
00000360: e5ba f6be eed0 74be 3a13 84be c196 d93e
00000370: 381c 77bd 7f25 74bd 874c b1bd 7079 afbc
00000380: c73a 5b3e d944 9f3e e512 243e 889b e7bd
00000390: b621 3d3e b23d c6bd 31e5 063d 4eca ffba
000003a0: e539 25bd 06a3 c8be 4061 4fbe dc47 103d
000003b0: b602 403e 5755 07be 2dd0 7ebe cccc 93be
000003c0: 5788 b8be 3929 b7be 279a 5f3e e61e 843f
000003d0: 7c60 c0bd e0c9 3bbe 52dd 8fbe ac29 33be
000003e0: 7bb2 aabd 756d fcbd 40db 26bd 374b 1fbe
000003f0: 131d 1cbe 407d 80bc efed 8abe e8f6 d5bd
-0.019800786 0.0025615562 0.086159185 -0.17603683 -0.23163773 0.09648935 0.25387225 -0.2174243
0.3770288 -0.2192704 0.56128526 0.20054665 -0.06661417 -0.03228094 -0.0012772229 -0.22890013
-0.090978526 -0.22882149 0.39141858 -0.19861415 0.13191612 -0.14671984 -0.14512274 -0.082997166
-0.14540757 -0.20425555 -0.2776751 -0.13688089 -0.16260974 -0.11842922 0.10995498 -0.3492703
-0.03542841 -0.21788353 -0.15266454 -0.017366953 0.12684996 0.2657206 -0.27731124 -0.099986
-0.46549243 0.23432791 -0.10794671 -0.0044393856 -0.26591718 0.20827354 -0.08322592 0.03431475
-0.19467431 -0.23758511 -0.09622027 0.28439122 -0.08162627 -0.11825165 -0.07381645 -0.44593596
0.0033636328 -0.23246843 -0.025689209 -0.120125145 -0.20235628 -0.01479756 0.062187877 -0.18924469
-0.09128142 -0.2313171 -0.07740395 -0.13567805 -0.24577059 -0.3483146 -0.005178388 -0.0836516
-0.16169195 -0.046849556 -0.22217987 -0.13788375 -0.015829783 -0.074506536 0.10698091 -0.13968644
-0.25378445 0.045716442 -0.2853765 -0.10731684 -0.2635485 0.05889096 -0.18090925 0.07186862
-0.09740568 -0.16135235 -0.075849846 -0.17771168 -0.0563526 -0.16043022 -0.13674113 -0.21087736
-0.18605183 -0.060970675 0.27802643 -0.24383745 -0.27607572 0.10002091 -0.24842775 -0.178985
-0.06876041 -0.12144849 0.052567374 0.019299855 0.058983985 -0.22396524 0.04445659 0.13710165
0.20572431 0.032962848 -0.15674868 -0.08116812 -0.21250305 -0.13187882 -0.09362636 -0.1801838
-0.19064182 -0.29303172 0.053670604 -0.17482369 -0.12310443 0.070843756 -0.24566072 0.20297001
-0.3291122 -0.21881731 -0.12683564 0.0054484867 -0.21502586 0.11183806 -0.23578434 -0.1696004
-0.1883584 -0.10344579 -0.27871484 -0.21128953 0.15304519 -0.026223434 -0.45567876 0.119770326
-0.039002243 -0.055608004 -0.41899747 0.26256183 0.09606141 -0.5092508 -0.22613822 -0.0249149
-0.07523288 0.027882537 -0.2723362 -0.13487321 -0.12761733 0.055082414 0.097308196 0.19563691
-0.20118397 -0.20723502 -0.39571005 -0.018981894 -0.11201786 -0.1089173 0.26275077 0.058542997
-0.034116518 0.044772677 -0.27876398 -0.48035443 -0.07213927 0.019154018 0.32017192 -0.22320625
-0.1456889 0.20569628 0.23421837 -0.1360979 0.068004675 0.15876153 -0.023293398 -0.3934635
-0.22083664 -0.087483436 -0.072071865 0.02825276 -0.12483678 -0.20953324 -0.15281121 -0.13993818
0.064603455 0.026128897 -0.34450302 0.06620458 0.39452899 0.17872295 0.22197361 -0.30004174
0.08537514 -0.34098423 -0.077366926 0.1524892 0.0006903348 0.015467775 -0.011631851 0.33895835
0.180888 0.26923037 -0.013894917 0.022083737 -0.21960802 -0.37276202 -0.03471754 -0.080224834
-0.48189464 -0.23907825 -0.2579592 0.4249783 -0.060329646 -0.05960607 -0.086571746 -0.02142021
0.2140914 0.31107214 0.16022833 -0.11308962 0.18469891 -0.09679736 0.032933418 -0.0019515248
-0.040338416 -0.39186877 -0.20251942 0.03522478 0.18751034 -0.13216148 -0.248841 -0.28867185
-0.3604152 -0.35773638 0.21836148 1.032193 -0.09393403 -0.18338728 -0.28098541 -0.17496365
-0.08334824 -0.12325565 -0.040736437 -0.15556036 -0.15245466 -0.015684724 -0.27134654 -0.10447484

linear2.weight f4 [3, 256]
00000000: 5620 c83e 46f0 b03e 7b85 b0be 2fe6 a0be
00000010: 137e f8bc 84a9 8e3d 58af 8f3e b35d 4abe
00000020: 2263 a13e 26a8 62be 7827 5e3e 6522 ad3c
00000030: 7191 8dbd f0d1 683e 6ded 3a3a bfcc 4cbe
00000040: e11a fdbe 8332 2dbe ae3a be3e 92dd 38bd
00000050: 4bc6 c7bb 2c3c 91be e5d7 8fbe 8c8a 203e
00000060: 06b7 85bd 2637 02be 985d 40be 5aaa a1be
00000070: 715d 72be f0cf 31be 9d30 81bc 8f37 50bd
00000080: 7356 d1be 1289 cdbd e5f9 96bc 0252 1ebd
00000090: d28d 85be dead 7d3e 663a 4abe 5825 b33c
000000a0: 0795 e3bd b0cc e2bb 0e15 bcbe 781e 613e
000000b0: 67be 00be ec13 de3d 19c7 97bd 3f1d 8f3e
000000c0: 738d 1dbe 9b10 f6bd 9711 11bf a18d 963e
000000d0: c6c3 12bf 00bc dabd 9a81 d0bd be31 95bd
000000e0: fcd6 5e3e 65b5 793d 5859 d7be 8ce5 1ebf
000000f0: 9c08 40be bc7d 8dbe 61ca 41be f881 27be
00000100: 3603 d5be 8c13 82be 5d87 ecbd 68fe b3bd
00000110: 1f35 97bd bcf2 2dbe f80d 533d a89a c4be
00000120: 29ff fabe 345d 7ebe 9711 70be ae55 cebe
00000130: 401e 06bd ea62 883c ed2e 83be 0872 65be
00000140: 2241 a0bc a9a8 07bc 3f00 d6bb 25fd e63c
00000150: 5748 273e 33fb dd3d a738 11be 6508 b0bc
00000160: ac7d 97bd 6e1a 44be 6a07 1e3e b28f 113d
00000170: a214 71bd 6549 98bd 3406 d23d 64c4 b9be
00000180: b1b7 b3bd d0ee b33d db25 013e 67e2 083d
00000190: e8e7 8dbd f83e b53e 5a56 02be 4aef 8cbe
000001a0: 0ea6 903d a039 66be cd7d 1f3c 8e69 e2be
000001b0: d3e9 e2be e30e a1be 2b44 8bbe 6beb b93c
000001c0: 0962 f83e 213f a1bc dc4e 85be c210 b9be
000001d0: 9f0e 8e3c e6bb a0bc 1770 a6bb a412 72be
000001e0: ad3d a4bd 1eec 303d b32c bcbd 277b d13c
000001f0: 0be2 dcbd f08b 90be 5ec9 04be eb97 983c
00000200: aaf0 80be 42cb 66be a788 63be 5cde 9ebc
00000210: b09b b0bd be27 873e 1b5c d3bd af94 afbd
00000220: e9e0 0ebe 0075 463e 6441 f8bd 67ff d8be
00000230: ecd8 3e3e 6a93 14bd ad8c 78be 3e43 8b3e
00000240: 6fef 8e3c a5ff be3e 593b 70be eb94 e93d
00000250: d1d3 a23c d24d 0cbe 7f2e 87bd edea 583c
00000260: 5985 82be fdb3 1bbe f731 01be 44ea 49be
00000270: 8bde 48be c8d8 ad3e 8205 cfbb d30b c83d
00000280: cd9d bd3e 1dc9 cebd b41b 07be 3deb f4bc
00000290: 7f7a d6bd 0a7a 98be c4e7 de3d ac37 4bbd
000002a0: 69df fabc 920f 2f3c 2bce c3be ea32 89be
000002b0: 7246 6abd aed3 35bd 2fc8 8c3e 2393 f6be
000002c0: 9dcd 873d 95ff 893e 7b67 8e3e 0e69 73be
000002d0: fbd4 d73e 836e f93c 1cc3 823a 5fc2 2ebe
000002e0: fb0d 5dbe 988d 02bd 7a55 99bd 98ac 9e3e
000002f0: 254f 61be 1038 e0bd 1f1f 87be b6cf 8ebe
00000300: 7199 8c3a 2367 da3d b844 503d 2bc2 bdbc
00000310: 03e0 383e bf69 7d3e efc2 493e 8c9e 1e3c
00000320: a2e4 8dbe 284a b0be 7441 bebe 4607 303d
00000330: b670 cbbe 023c 8dbe 4dd8 1fbe 8e93 063e
00000340: fb3a e73e 6c37 0e3e eec0 96bd 83ac 81be
00000350: 822c afbe 866d 3dbe 186e b13d f649 bd3d
00000360: 4af1 16be a4cd e4be e735 26be 2924 823e
00000370: 9d9f 5abc 11fd 79be 8ef6 acbe 97d2 81bc
00000380: dcfe 173e 1420 603e a2b8 b53c 3dd3 ebbd
00000390: 848a ae3e ff80 cabd 1412 093e 2f42 b7be
000003a0: 18de 06be 0937 16be 453e 1abd d2aa 57be
000003b0: 6452 4f3d 0fb0 8ebe 2ac9 febd e6a8 113b
000003c0: c3e8 1bbe 406d 19be 3957 ee3e 355b 3e3e
000003d0: 6ff5 363e 86bd c3bb a547 d13d 8e17 b7bd
000003e0: 858c 683e 9dc4 3bbe 65e7 01be 4bcc 3a3d
000003f0: 0720 30be b546 9abe 3996 92be 1769 cabd
0.3908717 0.34558314 -0.34476838 -0.31425616 -0.030333554 0.06965926 0.28063464 -0.19762306
0.31520945 -0.22134456 0.21694744 0.021134565 -0.06912506 0.22736335 0.0007130716 -0.1999998
-0.4943457 -0.169138 0.37154144 -0.04513318 -0.0060966364 -0.2836622 -0.28094402 0.15677851
-0.065290496 -0.1271635 -0.18785703 -0.3157528 -0.23668458 -0.17364478 -0.015770251 -0.050834235
-0.40886268 -0.1003591 -0.018429706 -0.038652427 -0.26084763 0.24773356 -0.1974884 0.021868393
-0.11112409 -0.0069213733 -0.36734813 0.21984279 -0.12572633 0.108436435 -0.07411022 0.27952
-0.1538599 -0.12014886 -0.56667465 0.2940493 -0.57329977 -0.106803894 -0.101809695 -0.07284878
0.21761698 0.060964007 -0.4206035 -0.6206901 -0.18753284 -0.2763499 -0.18924858 -0.16358173
-0.41604012 -0.25405538 -0.11549256 -0.087887585 -0.07383179 -0.16987127 0.051526994 -0.38399243
-0.49022797 -0.24840242 -0.2344421 -0.40299743 -0.032743692 0.016648728 -0.2562174 -0.2240678
-0.019562308 -0.008279958 -0.006530791 0.02819688 0.16336189 0.10838928 -0.14181767 -0.021488378
-0.07397017 -0.19150707 0.15432516 0.03553743 -0.058857568 -0.07435874 0.102550894 -0.36282647
-0.08775271 0.08785784 0.12612097 0.03341904 -0.06928998 0.35399604 -0.12728253 -0.27526313
0.070629224 -0.2248292 0.009734583 -0.44221157 -0.4431902 -0.3145667 -0.27200446 0.022695264
0.48512295 -0.019683423 -0.26036727 -0.36145598 0.017340956 -0.019620847 -0.00507928 -0.23639923
-0.08019576 0.04319393 -0.09188213 0.025571419 -0.10785302 -0.28231764 -0.1296744 0.018627128
-0.25183612 -0.22538474 -0.22220097 -0.019393139 -0.08623445 0.26397508 -0.10320302 -0.08573281
-0.13952984 0.1938057 -0.12121847 -0.42382357 0.18637437 -0.036273398 -0.24272414 0.2719974
0.017448155 0.37304416 -0.2346014 0.11405357 0.019876393 -0.13701561 -0.06600665 0.013239604
-0.2549236 -0.15205379 -0.12616716 -0.19718271 -0.19616143 0.33954453 -0.0063177953 0.0976788
0.37034455 -0.10096953 -0.13194162 -0.029897327 -0.10472583 -0.29780608 0.108840495 -0.04961364
-0.030624108 0.010684865 -0.3824323 -0.26796657 -0.057196088 -0.044391327 0.27496478 -0.4815913
0.066310145 0.26952806 0.27813324 -0.23770544 0.4215468 0.030448204 0.000997636 -0.17066334
-0.21587364 -0.031873316 -0.074870065 0.30991054 -0.22002847 -0.10948193 -0.2639093 -0.27892846
0.0010726881 0.10664203 0.050846785 -0.023163876 0.18054204 0.2474737 0.19703268 0.009681355
-0.27713495 -0.34431577 -0.37159312 0.042975686 -0.3973443 -0.27584845 -0.15609856 0.13142225
0.45162186 0.1388833 -0.07361017 -0.25326928 -0.34213644 -0.18498811 0.08663577 0.092426226
-0.14740482 -0.4468814 -0.162315 0.25418213 -0.013343719 -0.24412943 -0.33781856 -0.015847487
0.14843315 0.21887237 0.022182766 -0.115149 0.34090054 -0.09887885 0.13385803 -0.35792682
-0.1317066 -0.14669432 -0.03765704 -0.21061257 0.050615683 -0.27868697 -0.12440713 0.0022225915
-0.1522551 -0.14983082 0.4655092 0.1858948 0.17867063 -0.0059735207 0.10218743 -0.089400396
0.22709854 -0.18336721 -0.12685926 0.045604985 -0.17199717 -0.3013207 -0.28630236 -0.098833255

linear2.bias f4 [3]
00000000: 02a6 0a3e 41cb 04bd 1383 82bd
0.1353989 -0.0324204 -0.06372657
