v1/model/model.pth (torch, 17216 bytes, 4 tensors)

linear1.weight f4 [256, 11]
0	0xbe0f46f6	-0.13991913
1	0x3eaa4f50	0.33263636
2	0xbe32ccbe	-0.17460915
3	0x3ea15ebb	0.31517586
4	0xbebe60f7	-0.37183353
5	0x3e9b81f2	0.30372578
6	0xbe84c958	-0.25934863
7	0xbe271df8	-0.16320026
8	0x3f0112b5	0.5041917
9	0xbe097f31	-0.13427426
10	0x3ef5af21	0.47985175
11	0xbe66d200	-0.22541046
12	0x3e5be9a5	0.21475847
13	0xbe87452a	-0.26419955
14	0x3e94c784	0.29058468
15	0xbe7134d7	-0.23555313
16	0x3e1f0466	0.15529022
17	0x3e710a6f	0.23539136
18	0xbe18de0e	-0.14928457
19	0x3ebd6156	0.36988324
20	0xbda317d1	-0.07963527
21	0xbefbe09b	-0.49194798
22	0x3d93368b	0.071881376
23	0xbec1333f	-0.3773441
24	0xbc51ad78	-0.012797706
25	0x3e9a59d1	0.3014665
26	0xbe65ffb3	-0.22460823
27	0xbe48a59c	-0.19594425
28	0x3da89064	0.08230665
29	0xbe4778ef	-0.19479726
30	0x3ebd5de2	0.3698569
31	0xbcf4449e	-0.029817875
32	0x3d6fb03c	0.05851768
33	0x3e87c81c	0.2651986
34	0xbd50070d	-0.050787974
35	0xbcb1b480	-0.021692514
36	0x3e896221	0.2683268
37	0xbe6fd448	-0.23420823
38	0xbe2b53ae	-0.1673114
39	0xbcfc92dc	-0.030831747
40	0xbe062990	-0.13101792
41	0xbee863f8	-0.4538877
42	0x3e88b584	0.26700985
43	0xbea691b2	-0.32533032
44	0x3dc22b24	0.09480885
45	0x3ee9c7bf	0.45660207
46	0xbf2416b3	-0.64097136
47	0xbce74afe	-0.028234001
48	0x3e3bec8a	0.18351951
49	0x3e774d28	0.24150527
50	0xbe860803	-0.26177987
51	0x3e1f1f19	0.15539207
52	0xbe89b4c1	-0.26895717
53	0x3dedeb8d	0.11617193
54	0x3e34a12a	0.17639604
55	0xbe18ec01	-0.14933778
56	0x3e9d0a40	0.30671883
57	0x3dd84566	0.10560112
58	0xbe6ec680	-0.23317909
59	0xbe41ff07	-0.18944941
60	0xbe40bde3	-0.18822436
61	0xbe3fe00a	-0.18737808
62	0x3da2c375	0.07947437
63	0x3d9c081a	0.07618733
64	0xbae2b830	-0.0017297324
65	0x3e090170	0.13379455
66	0xbe962547	-0.29325315
67	0xbdf39a7b	-0.11894699
68	0x3ef6e5e6	0.48222274
69	0xbce3a228	-0.027787283
70	0xbddcc4e8	-0.107797444
71	0xbeaa5906	-0.33271044
72	0x3e6e93e1	0.23298599
73	0x3ed8f12f	0.42371508
74	0xbe71c0b1	-0.23608662
75	0x3e2bc467	0.1677414
76	0xbe528454	-0.20558292
77	0x3daded20	0.08492494
78	0xbe68b6b7	-0.2272595
79	0xbe906f63	-0.2820998
80	0x3e722eb6	0.23650631
81	0x3e8b03b7	0.27151272
82	0xbe71e012	-0.23620632
83	0xbdc029ff	-0.0938301
84	0xbd1413d0	-0.036151707
85	0xbdb32758	-0.087477386
86	0x3ea5d7c9	0.32391194
87	0x3eb6827c	0.35646427
88	0xbd2c0d83	-0.042005073
89	0x3f203888	0.6258626
90	0xbe118e9d	-0.14214559
91	0xbe74569a	-0.23861161
92	0x3e957d85	0.29197326
93	0x3e9fc1a8	0.31202435
94	0x3ba08a7e	0.004899322
95	0xbe22d0cb	-0.1589996
96	0x3e5bc801	0.21463014
97	0x3e515a0c	0.20444506
98	0xbe6f735f	-0.23383854
99	0xbe816a62	-0.25276476
100	0xbcddbef9	-0.027068602
101	0xbe839540	-0.25699806
102	0x3e85d764	0.26140893
103	0xbeb4795d	-0.35248843
104	0x3e319e49	0.17345537
105	0x3cafd0cb	0.021461865
106	0xbd8ad612	-0.06779112
107	0xbf18cd4d	-0.59688264
108	0xbd84309d	-0.06454585
109	0x3d7e65b9	0.06210873
110	0xbc9ba178	-0.018997893
111	0x3e4f8164	0.20264202
112	0x3eab9610	0.33512926
113	0xbd663cfd	-0.056210507
114	0xbdaf4bd8	-0.08559388
115	0xbe536b75	-0.2064646
116	0x3e3dfefe	0.18554303
117	0x3ee76753	0.45196018
118	0x3e2529f2	0.16129282
119	0x3c7bb165	0.015362118
120	0xbd9e55dd	-0.07731221
121	0xbdb5816e	-0.088625774
122	0x3e79aecb	0.24383084
123	0xbd048074	-0.032349065
124	0x3ec306e4	0.38091195
125	0xbe401e4b	-0.18761556
126	0xbe08e93a	-0.13370219
127	0xbe95f029	-0.2928479
128	0x3ea24e6c	0.31700456
129	0xbd8ea33c	-0.06964728
130	0xbedcc8e6	-0.43122023
131	0x3b98f183	0.0046674623
132	0xbd8c3a46	-0.06847052
133	0xbeb99dbb	-0.3625315
134	0x3f007741	0.5018197
135	0xbe028143	-0.12744622
136	0xbc2939f8	-0.010328762
137	0xbe3dcf7b	-0.18536179
138	0x3d83d523	0.06437137
139	0x3edc60ce	0.43042606
140	0x3e155adb	0.1458544
141	0x3eca7642	0.3954335
142	0x3ea85913	0.32880458
143	0xbdfba032	-0.12286414
144	0xbe3798bf	-0.17929362
145	0x3e789398	0.24275053
146	0xbe0e7bee	-0.13914463
147	0xbdee3309	-0.11630828
148	0x3dc46a34	0.09590569
149	0x3e3e2623	0.18569236
150	0x3eab1886	0.33417147
151	0x3e83902d	0.25695935
152	0x3dfa7f59	0.12231321
153	0x3d2651a9	0.04060522
154	0xbea5c000	-0.32373047
155	0x3c98a53b	0.018633476
156	0x3eac8c09	0.33700588
157	0x3e4bd1fb	0.1990432
158	0xbed7e683	-0.42168054
159	0xbe655e88	-0.22399342
160	0x3d1bdbbc	0.038051352
161	0xbe31e3eb	-0.173721
162	0x3ec9f7e9	0.39446953
163	0x3e2c70ba	0.16839877
164	0xbe101d7b	-0.14073746
165	0x3e7ecf63	0.24883799
166	0x3d5cffeb	0.053955
167	0x3f126aa7	0.5719399
168	0xbe6cd67e	-0.23128697
169	0x3e6eb78b	0.23312204
170	0xbe6e9e6e	-0.23302624
171	0x3c1d7ea7	0.009612716
172	0x3eaf737b	0.34267792
173	0xbe017e0f	-0.12645744
174	0xbde13f23	-0.109983705
175	0x3e539e04	0.20665747
176	0x3d338d98	0.043836206
177	0x3ef5daf0	0.480186
178	0x3d8b8578	0.068125665
179	0x3e56930e	0.20954534
180	0xbe9da97d	-0.30793372
181	0xbeb25ff1	-0.34838822
182	0x3db16bed	0.08663163
183	0xbe708db2	-0.23491552
184	0x3ec15d90	0.37766695
185	0x3e8aa4b2	0.27078778
186	0x3e823401	0.254303
187	0x3e9a85e1	0.30180266
188	0xbf0efc53	-0.55853766
189	0xbd9da417	-0.07697313
190	0xbdd2a954	-0.10286203
191	0x3d572a09	0.052530322
192	0x3dcf1bf8	0.101127565
193	0x3ed646b8	0.4185083
194	0x3ed20686	0.41020602
195	0x3e8bc8a5	0.27301517
196	0x3e8dd643	0.2770253
197	0xbde55c30	-0.11199224
198	0xbe6c3259	-0.23066081
199	0xbe7ed1f1	-0.24884774
200	0xbdf7048f	-0.12061416
201	0x3e7d41dd	0.24732156
202	0x3d7f3f2a	0.062316097
203	0xbdfeb06a	-0.12435992
204	0x3d05f712	0.032706328
205	0xbe7d635c	-0.24744934
206	0xbe990371	-0.29885438
207	0xbe8fd2d1	-0.28090528
208	0xbe4dcb8f	-0.20097183
209	0xbe39d76e	-0.18148586
210	0xbe8529d5	-0.26008478
211	0xbe1e60d0	-0.15466619
212	0xbede5d79	-0.4343069
213	0xbdb93475	-0.090432085
214	0x3ea7da65	0.3278381
215	0x3e3bfbcd	0.18357773
216	0xbea87c5a	-0.32907373
217	0xbf064405	-0.5244754
218	0x3e9352d9	0.28774145
219	0x3cabc7c7	0.020969285
220	0x3eff8e2b	0.49913153
221	0x3cdd4d19	0.027014302
222	0x3d39ffc1	0.04540992
223	0xbe07f8be	-0.13278481
224	0xbe88336b	-0.2660173
225	0x3cfc2d0d	0.0307832
226	0xbec86544	-0.3913976
227	0xbde4df51	-0.11175407
228	0x3e1d796d	0.15378352
229	0xbe4777d7	-0.19479309
230	0x3e70fff7	0.23535143
231	0xbea42f8c	-0.32067525
232	0x3e50e5fe	0.20400235
233	0xba87ab40	-0.0010350719
234	0x3e3cba8e	0.1843054
235	0x3e50b746	0.20382413
236	0xbeb629ab	-0.35578665
237	0xbec4beea	-0.38426906
238	0x3ed6cc01	0.41952518
239	0xbe87b2dd	-0.2650365
240	0xbe916d32	-0.28403622
241	0xbe073398	-0.13203275
242	0x3eb2659d	0.3484315
243	0x3e69a116	0.22815356
244	0x3c42e1a2	0.011894615
245	0xbc4a9ff9	-0.012367242
246	0xbd881e8d	-0.06646452
247	0xbd5535b3	-0.052053165
248	0x3d8ce783	0.06880095
249	0x3e82f82f	0.25579974
250	0x3ed4e91f	0.41584107
251	0x3ec2a65e	0.38017553
252	0x3ec3ed10	0.38266802
253	0xbe32dbe0	-0.17466688
254	0x3d141dab	0.036161106
255	0xbd93e5ce	-0.07221566

linear1.bias f4 [256]
0	0xbe3850c6	-0.17999563
1	0xbe12603c	-0.14294523
2	0xbe72186d	-0.2364213
3	0xbe4cf53a	-0.20015422
4	0xbce09d15	-0.027418653
5	0xbee17c84	-0.4404031
6	0xbd2bd6e9	-0.041953
7	0xbe8fb811	-0.2807012
8	0x3dc6dbc5	0.097098865
9	0x3ecf186b	0.40448317
10	0x3dcbb32f	0.09946286
11	0xbd23cda7	-0.039991047
12	0xbe4cf7c0	-0.20016384
13	0xb95bf04a	-0.00020974982
14	0xbd305974	-0.04305406
15	0xbe11fc5c	-0.14256424
16	0xbdf5d44c	-0.12003383
17	0xbeba61ea	-0.36402828
18	0xbe976dc7	-0.2957594
19	0x3e1118ea	0.1416966
20	0x3dce330b	0.100683294
21	0xbdbebfc7	-0.093139224
22	0xbec01509	-0.3751605
23	0x3da0f87a	0.07859893
24	0xbd5e2598	-0.05423507
25	0x3f0ab90d	0.54188615
26	0xbd8d0f05	-0.068876304
27	0xbcb53189	-0.022118347
28	0x3d9f14e4	0.077676564
29	0xbe0408f6	-0.12894043
30	0xbdefc42f	-0.11707341
31	0xbe77a884	-0.24185377
32	0x3db78bd9	0.08962221
33	0xbd09cedf	-0.033644553
34	0xbde8d01c	-0.11367819
35	0x3d8425a4	0.06452492
36	0xbe56b28a	-0.20966545
37	0x3d58ba1d	0.052911866
38	0xbe896392	-0.2683378
39	0xbda0d0d1	-0.078523286
40	0x3c23514c	0.009968113
41	0xbe0d8408	-0.13819897
42	0xbe5549c3	-0.20828919
43	0xbebc7326	-0.368066
44	0xbdabd7c1	-0.08390761
45	0xbda5bc02	-0.080925
46	0xbe48668a	-0.19570366
47	0xbd991014	-0.0747377
48	0x3d4a4169	0.049378786
49	0xbd497cab	-0.04919116
50	0xbe474736	-0.19460759
51	0x3e9a0085	0.3007852
52	0xbe27d209	-0.16388716
53	0xbe4ec321	-0.20191623
54	0xbe1e8fb9	-0.15484513
55	0xbe98c3d8	-0.29836917
56	0x3e862582	0.2620049
57	0xbdf2b6b0	-0.11851251
58	0xbe6df5c9	-0.23238291
59	0x3d556d15	0.05210598
60	0x3ea63828	0.3246472
61	0xbe590f8a	-0.21197334
62	0xbdac6670	-0.08417976
63	0x3e98d2f6	0.2984845
64	0x3eae4acf	0.3404145
65	0xbd42b604	-0.047536865
66	0x3dfd0626	0.12354688
67	0x3cc6e7f5	0.024280528
68	0x3d4c1217	0.04982194
69	0xbe3fa4e2	-0.18715242
70	0x3b8f0f19	0.0043658135
71	0x3e8170fe	0.2528152
72	0x3d91f4f6	0.07126801
73	0x3d442430	0.047886074
74	0xbe848a93	-0.25886974
75	0x3e52cfa7	0.20587026
76	0x3ddd308d	0.10800276
77	0xbd1c4aa7	-0.03815713
78	0xbe9047a2	-0.28179651
79	0x3d2ea799	0.042640302
80	0x3e32f2d3	0.17475443
81	0xbe186234	-0.14881212
82	0x3dfdd0f1	0.12393368
83	0xbe0c1eeb	-0.1368367
84	0x3e886521	0.26639655
85	0xbc534c8c	-0.012896668
86	0x3da56f88	0.080779135
87	0xbea2d686	-0.31804293
88	0x3dc05ebf	0.093930714
89	0xbcd68ba9	-0.026189642
90	0xbe26479a	-0.16238251
91	0x3e28a629	0.16469635
92	0x3e2a4f44	0.166318
93	0xbdcee81a	-0.101028636
94	0x3e3ca98b	0.1842405
95	0x3d5d4919	0.05402479
96	0xbe0fe70f	-0.14052986
97	0xbdfa97e5	-0.12236003
98	0xbdbe034a	-0.09277971
99	0xbe6906d2	-0.22756508
100	0x3df3edc2	0.11910583
101	0x3e2e4310	0.1701777
102	0xbdc33516	-0.0953161
103	0x3d4ed8fd	0.050499905
104	0xbe430843	-0.1904612
105	0x3d859689	0.06522853
106	0x3ca7bda9	0.02047618
107	0x3d89c99e	0.067279086
108	0x3df45e9c	0.11932108
109	0xbe21758b	-0.15767495
110	0xbd01cbb7	-0.03168842
111	0xbe77f5cb	-0.24214856
112	0xbe69e9e5	-0.2284313
113	0xbe580474	-0.21095449
114	0xbe023a5d	-0.12717576
115	0xbe847889	-0.2587321
116	0xbe7ded5b	-0.24797575
117	0xbe01dfc7	-0.1268302
118	0xbe91ed86	-0.28501529
119	0x3e12ac6e	0.14323589
120	0xbd8c89e7	-0.0686224
121	0xbaadd987	-0.0013263681
122	0xbe5bcb5d	-0.21464296
123	0xbe7d1da6	-0.24718341
124	0xbbf0dd3c	-0.007350592
125	0xbdd53f75	-0.10412494
126	0xbeb3dde2	-0.3513022
127	0x3e05d5ea	0.13069883
128	0xbcb62e4a	-0.02223887
129	0x3dc6e1e2	0.097110525
130	0xbde821e3	-0.113345884
131	0x3e0b8d26	0.13628063
132	0xbc1ce58b	-0.009576212
133	0xbe3f88df	-0.18704556
134	0xbea45a79	-0.32100275
135	0x3d30e947	0.04319122
136	0xbe715ccc	-0.23570555
137	0xbf0a3f06	-0.54002416
138	0xbe2a936b	-0.16657798
139	0xbe8a23a4	-0.26980317
140	0xbea02919	-0.31281355
141	0xbb13fb63	-0.0022580258
142	0xbe011400	-0.12605286
143	0xbe81b46e	-0.2533297
144	0xbdd0b466	-0.10190658
145	0xbe503361	-0.203321
146	0xbeadece7	-0.33969805
147	0xbe8dabb5	-0.27670065
148	0xbebe9f19	-0.37230757
149	0xbdb653da	-0.08902712
150	0x3db0dab2	0.08635463
151	0xbe0849f8	-0.13309467
152	0xbe362814	-0.17788726
153	0xbe30d305	-0.17267998
154	0xbebe4138	-0.37159133
155	0x3eae99b3	0.34101638
156	0x3e96e081	0.29468158
157	0xbc908138	-0.017639741
158	0xbe8fca65	-0.28084102
159	0x3e06e985	0.13175018
160	0x3f20546d	0.62628824
161	0x3e167d08	0.14696133
162	0x3cded19a	0.027199555
163	0x3d411bca	0.047145642
164	0x3eb742d7	0.35793182
165	0x3e514fa9	0.20440544
166	0x3e249c9a	0.16075364
167	0x3d9927dc	0.07478306
168	0x3ed83f5d	0.42235842
169	0xbe1dcbe4	-0.1540981
170	0xbd85f490	-0.06540787
171	0xbe064dd6	-0.1311563
172	0x3e2789a7	0.16361104
173	0xbdf83f3e	-0.121214375
174	0xbe816756	-0.25274152
175	0xbeb4b36c	-0.35293138
176	0x3de9af59	0.11410398
177	0x3e879f34	0.2648865
178	0x3ebe7927	0.37201807
179	0xbec53b1a	-0.38521653
180	0xbc878f5e	-0.016547855
181	0xbe702cea	-0.23454633
182	0xbe873e29	-0.26414612
183	0xbe2071ec	-0.15668458
184	0xbe15346c	-0.14570779
185	0x3e0db0ad	0.13836928
186	0x3db0f013	0.086395405
187	0x3cb8f196	0.022576135
188	0x3e59192e	0.21201012
189	0xbe8223db	-0.2541798
190	0xbbf47ee0	-0.0074614137
191	0xbccf6b68	-0.02531977
192	0xbcf0ba16	-0.029385608
193	0x3bdacc50	0.006677188
194	0xbe1e8902	-0.15481952
195	0xbf12adc8	-0.5729642
196	0xbd4256ac	-0.047445938
197	0xbd393006	-0.045211814
198	0x3c0fbe66	0.008773422
199	0xbe06cbd1	-0.13163687
200	0xbe96c3a9	-0.29446152
201	0xbe6da419	-0.2320713
202	0xbe499759	-0.19686641
203	0x3e488a76	0.19584069
204	0xbe249fbb	-0.16076557
205	0xbd3b46c7	-0.045721795
206	0xbe885ec1	-0.26634791
207	0xbe80ca58	-0.25154376
208	0xbe72dd62	-0.23717263
209	0xbda2e318	-0.07953471
210	0xbe853ee8	-0.26024556
211	0xbc8c6b19	-0.017140912
212	0xbe8a71c9	-0.27039936
213	0x3e0e6007	0.13903819
214	0xbdd8f12f	-0.10592877
215	0x3c8b912f	0.017037002
216	0x3ead9795	0.3390471
217	0xbda77b52	-0.08177818
218	0xbcd8e0d1	-0.026474388
219	0xbd6c3d06	-0.057675384
220	0x3d485943	0.04891325
221	0xbeca2733	-0.39483032
222	0x3c964d04	0.01834727
223	0x3d489d0c	0.048977897
224	0xbe1be5b4	-0.15224344
225	0x3c7e37f9	0.015516275
226	0xbdd5a5ba	-0.104320005
227	0xbe07c630	-0.13259196
228	0xbe34bdfc	-0.17650598
229	0x3bca77bf	0.0061788256
230	0xbd894bf4	-0.0670394
231	0x3e9bb460	0.30411053
232	0x3cb9e75c	0.022693329
233	0xbe877d1d	-0.2646264
234	0x3d894b42	0.067038074
235	0xbd3fc0db	-0.04681478
236	0xbd7b6bf7	-0.06138226
237	0x3e8adf39	0.2712343
238	0x3e54df1a	0.20788231
239	0xbe51810f	-0.20459388
240	0xbdb1dad9	-0.0868432
241	0x3d6e840c	0.0582314
242	0x3e30ac83	0.17253308
243	0xbb288cce	-0.0025718692
244	0xbd82715a	-0.06369276
245	0xbddb0b73	-0.10695543
246	0x3da7db45	0.08196119
247	0xbe50811a	-0.20361748
248	0xbd3dc98e	-0.046334796
249	0xbe29fab8	-0.16599548
250	0xbeee5218	-0.46547008
251	0xbe3f28bc	-0.18667883
252	0x3c98361c	0.018580489
253	0xbe0598fd	-0.13046642
254	0x3e680490	0.2265799
255	0xbd5e56b6	-0.054281913

linear2.weight f4 [3, 256]
0	0xbea8f71e	-0.33001035
1	0xbe5c4c15	-0.21513398
2	0xbe717ba0	-0.23582315
3	0xbd3afc97	-0.045651045
4	0xbd53bd18	-0.051694006
5	0xbafc7122	-0.001925979
6	0xbde6458b	-0.11243733
7	0xbe6fe4a3	-0.23427062
8	0x3ea5621e	0.3230142
9	0x3e92a334	0.2864014
10	0xba6ad420	-0.00089580007
11	0x3e934d50	0.28769922
12	0xbe5eb026	-0.21746883
13	0xbcd1ce5e	-0.025611099
14	0xbe5235b4	-0.20528299
15	0xbdd1060c	-0.102062315
16	0xbdec0bef	-0.11525714
17	0xbedf1b03	-0.43575296
18	0xbcc2834c	-0.023744248
19	0x3e982b33	0.29720458
20	0xbe4d68cf	-0.20059513
21	0x3e49120e	0.19635794
22	0xbe692fa4	-0.2277208
23	0x3e3a5fb1	0.18200566
24	0xbf1d11b0	-0.61355114
25	0x3ec026c3	0.37529573
26	0xbe81b6f8	-0.25334907
27	0xbf0b00a4	-0.5429785
28	0x3ef84eae	0.48497528
29	0xbef96cb2	-0.4871574
30	0xbecf1586	-0.4044611
31	0xbd40f46c	-0.0471081
32	0x3d179e5e	0.037016265
33	0xbeb00592	-0.3437925
34	0x3d90d56a	0.070719555
35	0xbf298f55	-0.6623433
36	0xbee2101f	-0.44152924
37	0x3c6790df	0.014133661
38	0x3d2fe8d0	0.042946637
39	0xbe4d4be8	-0.20048487
40	0x3e7852a8	0.24250281
41	0xbe5b5ce1	-0.21422149
42	0x3e6c6365	0.23084791
43	0xbe87d335	-0.26528326
44	0xbec3cf30	-0.3824401
45	0xbeba7ee9	-0.3642495
46	0x3e8c7667	0.27434084
47	0x3e1a763a	0.15084162
48	0xbee19515	-0.44059053
49	0xbead404b	-0.33838114
50	0xbdb46621	-0.08808542
51	0x3e156cb3	0.14592247
52	0xbef003b8	-0.46877837
53	0xbe91fe66	-0.28514403
54	0xbe1725d6	-0.14760527
55	0xbd3d777a	-0.04625652
56	0x3ee085e5	0.43852153
57	0xbea4acd4	-0.32163107
58	0xbd51741b	-0.051136117
59	0x3c0ae175	0.008476605
60	0x3e74c3ba	0.23902789
61	0xbc3a0ff6	-0.011356344
62	0xbe8c667e	-0.27421945
63	0x3d61dfe3	0.055145156
64	0x3e6bf1ca	0.23041454
65	0xbd755350	-0.059893906
66	0x3e8a1eec	0.26976717
67	0xbe033d4d	-0.12816353
68	0x3dffc66c	0.12489018
69	0x3c76fa3d	0.01507431
70	0xbe936aeb	-0.2879251
71	0x3ebd3f51	0.3696237
72	0xbe9e838a	-0.3095973
73	0x3e0969bd	0.13419242
74	0xbd076ce7	-0.03306284
75	0x3e2f4cd3	0.1711915
76	0x3eb348de	0.3501653
77	0x3dddf990	0.10838616
78	0xbde36ff3	-0.11105337
79	0xbe0856ff	-0.13314436
80	0x3e9e00c2	0.30859953
81	0xbe23c5ad	-0.15993376
82	0x3e8dd63b	0.27702507
83	0x3d26b81e	0.04070293
84	0x3df0f42d	0.11765323
85	0x3c7500e8	0.014953829
86	0x3edaf814	0.42767394
87	0x3d8b7490	0.06809342
88	0xbdb5f83f	-0.0888524
89	0xbe45961b	-0.19295542
90	0xbe934964	-0.2876693
91	0x3d3e25d5	0.0464228
92	0x3dbe8f3d	0.09304664
93	0xbd967b3f	-0.07347726
94	0x3b10f4d1	0.0022118578
95	0xbc963fc9	-0.018340962
96	0xbe917f2d	-0.2841734
97	0xbf00dba6	-0.50335157
98	0xbd2f5a1a	-0.042810537
99	0xbc4e12c8	-0.01257772
100	0xbe8c2bba	-0.2737711
101	0x3e3746f8	0.17898166
102	0xbbba2baf	-0.005681477
103	0xbbfdbae4	-0.0077432264
104	0xb9a16a00	-0.0003078729
105	0xbdd791c5	-0.1052585
106	0x3d725bdd	0.05916964
107	0xbe350230	-0.17676616
108	0x3e1b060b	0.15139024
109	0xbdf3bf0a	-0.11901672
110	0x3e7e2cd0	0.24821782
111	0xbdf7369c	-0.12070963
112	0xbe20dc11	-0.15708949
113	0xbdbf5c22	-0.09343745
114	0xbe6c0727	-0.23049603
115	0xbf00859a	-0.5020386
116	0x38c27cc6	9.273882e-05
117	0xbe68f27e	-0.22748753
118	0xbcb93f17	-0.022613091
119	0x3d7ab70d	0.061209727
120	0xbf45ac28	-0.77215815
121	0x3e998665	0.29985347
122	0x3e54ba8c	0.20774287
123	0xbdf25272	-0.118321314
124	0xbf009830	-0.5023222
125	0x3d8ed596	0.06974332
126	0x3d85d0c2	0.06533958
127	0x3de53244	0.11191228
128	0xbe435c3a	-0.1907815
129	0x3e87e1eb	0.2653955
130	0xbe4dffd1	-0.20117117
131	0x3e41d7b0	0.18929935
132	0xbc2fee28	-0.010737933
133	0xbd705bde	-0.05868136
134	0xbd3d1444	-0.046161905
135	0xbb2f56b0	-0.002675455
136	0xbd98c169	-0.07458765
137	0xbe70e09f	-0.23523186
138	0xbec9caaf	-0.39412448
139	0xbe95a48a	-0.29227096
140	0xbe3cf6cf	-0.18453525
141	0xbdb6c331	-0.089239486
142	0xbe04361d	-0.12911268
143	0xbcfe1778	-0.03101705
144	0x3b791a2a	0.003800998
145	0xbf0de2fb	-0.5542447
146	0x3d817c6d	0.063225605
147	0x3d020750	0.031745255
148	0xbc9d503f	-0.019203303
149	0xbf09fdec	-0.5390308
150	0x3e797694	0.2436164
151	0x3ee18b6c	0.44051683
152	0xbe42f36a	-0.19038168
153	0xbe4dde5a	-0.20104352
154	0x3cc69519	0.024241017
155	0x3e97bec9	0.29637745
156	0x3e35d961	0.17758705
157	0x3d7a469f	0.061102506
158	0xbc7f6685	-0.015588407
159	0x3cf6cc3e	0.030126687
160	0x3eafd551	0.34342435
161	0x3db0bdb2	0.086299315
162	0xbec18168	-0.37794042
163	0x3e43b07c	0.19110292
164	0x3e2c7d39	0.16844644
165	0x3e0b5ad0	0.13608861
166	0x3e054341	0.13013937
167	0xbd24b3b1	-0.04021043
168	0x3ed2a061	0.41137984
169	0xbe456bd8	-0.1927942
170	0xbecb2840	-0.39679146
171	0xbe09bfa3	-0.1345201
172	0x3c7b9ae5	0.015356754
173	0xbe9cd789	-0.3063319
174	0xbde78b13	-0.11305823
175	0xbeae2878	-0.3401525
176	0x3ea25d71	0.31711915
177	0x3e138fbd	0.144103
178	0x3e599edb	0.21252005
179	0x3d29d7d5	0.0414656
180	0xbeb8ee08	-0.36119103
181	0xbf38f81b	-0.7225358
182	0xbe175c8f	-0.14781402
183	0xbda18e21	-0.07888437
184	0xbdfb4f7d	-0.122710206
185	0xbe174954	-0.14774066
186	0xbded5ef2	-0.11590375
187	0xbd3ee1d5	-0.04660209
188	0x3da5de4c	0.080990404
189	0xbd4506e2	-0.048102267
190	0xbe9e3444	-0.3089925
191	0xbeec2838	-0.46124434
192	0x3ebc892b	0.368234
193	0xb9096200	-0.00013101846
194	0x3eb2776a	0.3485673
195	0xbe6fa97c	-0.23404497
196	0xbeeb1fea	-0.45922786
197	0xbe7b0dd8	-0.24517
198	0x3e37da0b	0.1795427
199	0x3e736a5b	0.2377104
200	0x3ac00c00	0.0014652014
201	0xbde235cf	-0.110454194
202	0xbdb1746e	-0.08664785
203	0x3e64a15a	0.22327176
204	0xbd220950	-0.039559662
205	0x3c2b06f6	0.010438671
206	0xbe34a39b	-0.17640536
207	0xbebd8ac8	-0.37019944
208	0xbeaa2d35	-0.33237615
209	0x3d95ecd8	0.07320565
210	0xbe32e4f2	-0.17470148
211	0xbd44a9a8	-0.04801336
212	0xbec61300	-0.3868637
213	0x3ec0ece0	0.3768072
214	0xbec77674	-0.3895756
215	0xbe2c6af6	-0.16837677
216	0x3e17176e	0.14755031
217	0x3eba9347	0.3644049
218	0xbe7e123a	-0.2481164
219	0xbd67e31f	-0.056613084
220	0xbd0dab7b	-0.034587365
221	0xbe13f1e5	-0.14447744
222	0xbdc8e50b	-0.098093115
223	0x3ea3cc7c	0.31991947
224	0xbdbf0823	-0.09327724
225	0xbc96862b	-0.018374523
226	0xbf11783a	-0.56824076
227	0xbdbd2c78	-0.09236997
228	0xbd8c043e	-0.06836747
229	0xbed835a6	-0.4222843
230	0xbebabfa6	-0.3647434
231	0x3e984191	0.29737523
232	0x3bf25717	0.007395636
233	0xbf1e5fd4	-0.6186497
234	0xbd34829c	-0.04406987
235	0x3e308078	0.17236507
236	0xbdeae9b5	-0.11470357
237	0x3ed989b2	0.42487866
238	0x3dcbd10c	0.09951982
239	0xbe83ef21	-0.25768378
240	0x3c0f0f25	0.008731638
241	0xbd6b3d97	-0.057431784
242	0x3ea44271	0.3208194
243	0x3ed27c63	0.41110525
244	0xbd89f466	-0.067360684
245	0xbeda0627	-0.4258282
246	0xbbdabda2	-0.006675438
247	0xbc5a9538	-0.013341241
248	0xbedaa7d9	-0.42706183
249	0xbedc8d39	-0.43076494
250	0xbe229286	-0.15876207
251	0x3e6b0631	0.2295158
252	0x3d77f74f	0.060538586
253	0xbec9f59b	-0.39445195
254	0x3e5b7439	0.21431054
255	0x3d9173a3	0.07102134

linear2.bias f4 [3]
0	0x3e2e03d0	0.16993642
1	0xbc3d64a2	-0.011559637
2	0xbd2d8723	-0.042365205
